actor.pth (torch, 279870 bytes, 16 tensors)

log_std f4 [1, 3]
000000 00 00 00 c0 00 00 00 c0 00 00 00 c0
       -2.0 -2.0 -2.0

_action_min f4 [3]
000000 00 00 00 00 db 0f 49 bf db 0f 49 c0
       0.0 -0.7853982 -3.1415927

_action_max f4 [3]
000000 00 00 80 3f db 0f 49 3f db 0f 49 40
       1.0 0.7853982 3.1415927

_action_range f4 [3]
000000 00 00 80 3f db 0f c9 3f db 0f c9 40
       1.0 1.5707964 6.2831855

_net._net.0.weight f4 [128, 17]
000000 66 4e 4e ba f2 ee 2d ba dd 6e 0e ba 3c cc d5 ba
       -0.00078699586 -0.0006635032 -0.000543339 -0.0016311477
000010 ef 26 c0 3a e5 d9 8e b9 a6 11 86 ba 46 44 34 bb
       0.0014660041 -0.00027246695 -0.0010228648 -0.0027506514
000020 b6 2f 85 37 12 38 1c b9 89 fa 0e ba 73 ab 48 39
       1.5877053e-05 -0.00014898207 -0.0005454203 0.00019137356
000030 e1 40 26 3a ea 4c 48 37 f7 21 b8 39 3b b1 7a b8
       0.0006342065 1.1938837e-05 0.0003512052 -5.9769704e-05
000040 7b d3 b6 b9 2a 23 b6 39 cf 1b 02 b9 c7 d9 95 3a
       -0.0003487131 0.00034739944 -0.00012408126 0.00114327
000050 f4 92 b8 ba 87 71 08 ba 4e a2 f2 ba 1d 52 c4 3a
       -0.0014081881 -0.0005204905 -0.0018511505 0.0014978085
000060 a3 fb 9c 39 b3 db d3 39 f7 da 68 39 f5 ce c1 ba
       0.00029942123 0.00040408745 0.00022206815 -0.001478641
000070 29 68 30 ba f9 34 ca b9 29 5e 4c ba 7e d2 40 3a
       -0.0006729388 -0.0003856791 -0.00077960134 0.00073555845
000080 e7 75 43 b9 17 3c 05 3a d3 70 2f ba 70 56 ce b9
       -0.00018640571 0.00050825014 -0.00066925323 -0.00039355783
000090 2e 65 a1 ba 5f 27 0f 3a 7b 36 76 b9 18 a2 1e ba
       -0.0012313479 0.0005460884 -0.00023480684 -0.00060513755
0000a0 42 7f b3 b9 a2 e2 b3 b9 52 ac 9d b9 07 ec 1b 38
       -0.00034236355 -0.00034310395 -0.00030073762 3.7174697e-05
0000b0 38 c2 cb 38 bb b2 ae b9 a9 05 2d ba 6b 75 0a b9
       9.7159704e-05 -0.0003332103 -0.00066002697 -0.00013204447
0000c0 27 9e 28 ba 5d b1 d5 ba 14 57 20 39 fc a6 83 39
       -0.0006432258 -0.0016303469 0.00015291228 0.0002511068
0000d0 cf 8f ec ba bc fe fa 3a 49 99 b7 b9 64 ab 4b 3a
       -0.0018048229 0.0019149403 -0.00035018686 0.00077693746
0000e0 45 b3 bd 38 a9 e3 c7 ba 0f 54 35 ba fb 5c 2b 39
       9.045614e-05 -0.0015250343 -0.0006917128 0.00016342469
0000f0 6d c8 a8 3a 72 0d 8f ba f9 0a f9 b9 2d fb 2b ba
       0.0012877114 -0.0010914041 -0.00047501156 -0.00065605604
000100 4f 2b a2 b9 e5 c0 eb ba 92 a9 7b 3a c9 95 9b ba
       -0.00030931315 -0.0017986564 0.0009600158 -0.0011870201
000110 01 5b a7 ba ae 79 bf b9 89 82 e2 39 59 6c a7 ba
       -0.001276821 -0.00036521017 0.00043203335 -0.0012773379
000120 97 45 b7 ba fd 1a a4 b9 72 b1 dd 39 c9 b7 7e ba
       -0.0013982531 -0.00031300625 0.00042284612 -0.0009716717
000130 12 12 71 39 3b 0e cc 3a cf 7e db b9 6e 75 5b 3a
       0.00022990283 0.0015568206 -0.00041865415 0.00083716854
000140 73 a0 13 ba cb 2e 2d 3a b8 d0 ec 39 e1 60 33 3a
       -0.0005631514 0.0006606399 0.00045168935 0.0006842744
000150 55 60 c0 ba f3 70 cf 3a 6e 1c 39 3a fe a4 bb 3a
       -0.0014677147 0.0015826508 0.00070614263 0.0014316139
000160 ee 91 b6 38 22 33 c2 3a c2 3d 4d 35 b0 ca bf ba
       8.705618e-05 0.0014816264 7.645832e-07 -0.0014632549
000170 6e b3 3c b9 37 70 c8 b9 9b 75 06 3a 27 69 70 ba
       -0.0001799592 -0.0003823058 0.0005129219 -0.00091709424
000180 d2 6f e5 b7 d5 bb 81 3a d6 25 a0 3a b5 47 51 ba
       -2.7350998e-05 0.0009897897 0.0012218307 -0.00079834025
000190 17 32 c2 3a cf 82 8d b9 3d 36 21 b9 f3 9d 9f 3a
       0.0014815953 -0.00026991076 -0.00015374362 0.001217781
0001a0 80 50 e0 ba dd a6 5c 3a 26 14 c1 b9 f4 3b 2a ba
       -0.0017113835 0.00084171986 -0.0003682684 -0.0006493919
0001b0 9e a8 3d 3a 4f 12 de 39 a0 c4 9b b8 3b ef 5b 3a
       0.0007234904 0.0004235678 -7.4276e-05 0.0008389835
0001c0 dc 59 47 ba 13 c8 73 ba 60 2a 2f 39 b2 c4 06 ba
       -0.00076046376 -0.0009299528 0.00016705086 -0.0005141004
0001d0 96 9b 93 3a 55 fd 07 ba b4 f1 10 3a 24 2a a7 3a
       0.0011261578 -0.0005187591 0.00055291806 0.0012753648
0001e0 e8 a2 0e b9 c2 9d 2f 3a a1 75 17 ba ac 7d 99 39
       -0.00013602863 0.0006699228 -0.0005777721 0.00029276067
0001f0 20 2b 45 3a 3e f9 5b 3a 8f 79 5f 3a 51 15 22 bb
       0.000752138 0.0008391327 0.00085248885 -0.0024731944
000200 29 c3 cd 3a 1b 1e 7e b8 28 16 20 ba 36 1c ad b9
       0.0015698421 -6.0586357e-05 -0.0006106817 -0.0003301815
000210 ed 53 28 3a 38 9b 57 39 07 c6 15 ba be 70 9a 39
       0.00064211973 0.00020561821 -0.00057134073 0.00029457168
000220 41 cf a8 ba 66 3a 6f b7 ae 6e 8a b9 80 85 cc ba
       -0.0012879149 -1.4259107e-05 -0.00026403874 -0.0015603751
000230 cc 6f f0 b8 e4 80 96 b9 4d 73 a5 3a 45 65 98 3a
       -0.000114649156 -0.0002870626 0.0012622863 0.001162686
000240 17 96 29 39 13 33 41 b9 64 70 e1 39 46 ee ee b9
       0.00016173009 -0.00018424941 0.00042999082 -0.00045572425
000250 41 61 d8 ba 15 06 ba 3a db 1c 97 3a b2 0f 26 ba
       -0.0016508476 0.0014192486 0.0011528985 -0.0006334736
000260 f5 b3 8b 3a 1e ed 20 3a e1 1d cd 38 63 50 f0 39
       0.001065849 0.0006138849 9.780727e-05 0.0004583626
000270 38 1d 56 3a e4 67 1d 39 76 ca 99 ba 75 7a c5 3a
       0.0008167806 0.00015011389 -0.0011733312 0.0015066402
000280 7d 9b 96 3a 49 c7 ef b9 f8 b6 04 3a bd 21 01 ba
       0.0011490431 -0.0004573411 0.0005062665 -0.0004925987
000290 d6 fb 92 ba 2b 34 90 b9 ad 9d b1 3a 2f e4 21 ba
       -0.0011213969 -0.00027504688 0.0013551019 -0.00061756646
0002a0 b4 9b 01 b9 66 ba b0 ba d5 a9 a3 ba 06 e7 97 b9
       -0.00012360403 -0.0013483285 -0.0012486527 -0.0002897309
0002b0 93 50 03 3b c2 83 88 39 6e ef 59 ba 89 99 64 39
       0.002003704 0.0002603811 -0.0008313571 0.0002180097
0002c0 32 d6 06 ba 42 c8 08 3a 7d cb 23 ba 57 4b 8a 3a
       -0.0005143612 0.0005217829 -0.00062482787 0.0010551017
0002d0 4f a8 0a ba d6 00 13 ba 5d ae 0f ba 05 11 6c 39
       -0.0005289362 -0.00056077295 -0.0005480999 0.00022513054
0002e0 8f 57 26 b8 b3 29 5a b7 07 6c 60 3a 1b 32 4c ba
       -3.965903e-05 -1.3003521e-05 0.0008561019 -0.0007789449
0002f0 26 93 e0 ba 90 ee 51 ba 94 68 0a bb 00 99 9f b8
       -0.0017133697 -0.0008008266 -0.0021119462 -7.610209e-05
000300 93 d9 4f 3a 6a 8c 06 bb 70 f8 cd 3a 6f 0d 10 39
       0.00079288444 -0.002053047 0.0015714299 0.00013737915
000310 19 f3 6a ba 80 4d a5 ba 50 da 9a 39 e9 5c f5 ba
       -0.0008962616 -0.0012611598 0.00029535824 -0.0018719706
000320 27 5c 97 3a 9e 9d 79 b7 06 7e ec 39 d7 9f 88 ba
       0.0011547849 -1.4878255e-05 0.00045107323 -0.0010423613
000330 9e d2 f6 b9 4a 81 99 b9 4d 4c 10 ba 2b 90 f3 ba
       -0.00047077698 -0.00029278762 -0.0005504534 -0.0018582394
000340 02 31 50 3a e0 3a b1 b9 2d dc 8f 39 fe 73 81 3a
       0.0007941873 -0.00033803936 0.0002743913 0.0009876487
000350 27 a3 f2 39 a2 aa cd 3a d7 ef ed 39 79 fd 51 39
       0.00046279395 0.0015691111 0.00045382857 0.00020026219
000360 5d 3f 90 ba 2b c0 da b9 14 d4 21 ba 79 ad 7e 39
       -0.0011005212 -0.00041723376 -0.00061732647 0.00024287951
000370 5d 8e b8 39 2e 8c 4a 3a 7b ad e5 39 1a 6f 20 3a
       0.00035201284 0.0007726577 0.00043807537 0.0006120071
000380 ca fb f5 39 8d da c9 ba a0 9e c0 3a 8f 20 bb b8
       0.0004691764 -0.0015400216 0.0014695711 -8.9229194e-05
000390 c1 6f a4 38 6b 17 a0 b9 46 b8 f4 b8 33 3f 10 3a
       7.840945e-05 -0.00030535026 -0.0001166915 0.00055025815
0003a0 42 ee ab b8 e6 e9 0c 39 24 32 0b ba d0 60 1e 3a
       -8.1982944e-05 0.00013438574 -0.0005309901 0.0006041648
0003b0 59 7c d5 ba fc 0d d8 b9 35 76 de b9 fa 31 13 3a
       -0.0016287669 -0.0004120915 -0.0004243121 0.0005615052
0003c0 2b 58 70 ba c4 fa cc 39 f7 34 8f 3a b2 4b 11 39
       -0.00091684115 0.00039096747 0.0010925819 0.00013856476
0003d0 ad 74 b4 b9 47 6c b7 39 eb be 31 ba 73 39 17 ba
       -0.00034419206 0.00034985153 -0.0006780463 -0.00057687535
0003e0 69 71 e5 39 c5 a6 c6 37 40 1e 0c 3a c4 40 16 b9
       0.0004376278 2.3681097e-05 0.0005345084 -0.00014329242
0003f0 ef d2 bd 39 66 d1 a7 b9 cc d5 d3 ba 77 cc a1 3a
       0.00036206047 -0.00032008736 -0.0016161739 0.001234426

_net._net.0.bias f4 [128]
000000 00 00 00 00 00 00 00 00 00 00 00 00 00 00 00 00
       0.0 0.0 0.0 0.0
000010 00 00 00 00 00 00 00 00 00 00 00 00 00 00 00 00
       0.0 0.0 0.0 0.0
000020 00 00 00 00 00 00 00 00 00 00 00 00 00 00 00 00
       0.0 0.0 0.0 0.0
000030 00 00 00 00 00 00 00 00 00 00 00 00 00 00 00 00
       0.0 0.0 0.0 0.0
000040 00 00 00 00 00 00 00 00 00 00 00 00 00 00 00 00
       0.0 0.0 0.0 0.0
000050 00 00 00 00 00 00 00 00 00 00 00 00 00 00 00 00
       0.0 0.0 0.0 0.0
000060 00 00 00 00 00 00 00 00 00 00 00 00 00 00 00 00
       0.0 0.0 0.0 0.0
000070 00 00 00 00 00 00 00 00 00 00 00 00 00 00 00 00
       0.0 0.0 0.0 0.0
000080 00 00 00 00 00 00 00 00 00 00 00 00 00 00 00 00
       0.0 0.0 0.0 0.0
000090 00 00 00 00 00 00 00 00 00 00 00 00 00 00 00 00
       0.0 0.0 0.0 0.0
0000a0 00 00 00 00 00 00 00 00 00 00 00 00 00 00 00 00
       0.0 0.0 0.0 0.0
0000b0 00 00 00 00 00 00 00 00 00 00 00 00 00 00 00 00
       0.0 0.0 0.0 0.0
0000c0 00 00 00 00 00 00 00 00 00 00 00 00 00 00 00 00
       0.0 0.0 0.0 0.0
0000d0 00 00 00 00 00 00 00 00 00 00 00 00 00 00 00 00
       0.0 0.0 0.0 0.0
0000e0 00 00 00 00 00 00 00 00 00 00 00 00 00 00 00 00
       0.0 0.0 0.0 0.0
0000f0 00 00 00 00 00 00 00 00 00 00 00 00 00 00 00 00
       0.0 0.0 0.0 0.0
000100 00 00 00 00 00 00 00 00 00 00 00 00 00 00 00 00
       0.0 0.0 0.0 0.0
000110 00 00 00 00 00 00 00 00 00 00 00 00 00 00 00 00
       0.0 0.0 0.0 0.0
000120 00 00 00 00 00 00 00 00 00 00 00 00 00 00 00 00
       0.0 0.0 0.0 0.0
000130 00 00 00 00 00 00 00 00 00 00 00 00 00 00 00 00
       0.0 0.0 0.0 0.0
000140 00 00 00 00 00 00 00 00 00 00 00 00 00 00 00 00
       0.0 0.0 0.0 0.0
000150 00 00 00 00 00 00 00 00 00 00 00 00 00 00 00 00
       0.0 0.0 0.0 0.0
000160 00 00 00 00 00 00 00 00 00 00 00 00 00 00 00 00
       0.0 0.0 0.0 0.0
000170 00 00 00 00 00 00 00 00 00 00 00 00 00 00 00 00
       0.0 0.0 0.0 0.0
000180 00 00 00 00 00 00 00 00 00 00 00 00 00 00 00 00
       0.0 0.0 0.0 0.0
000190 00 00 00 00 00 00 00 00 00 00 00 00 00 00 00 00
       0.0 0.0 0.0 0.0
0001a0 00 00 00 00 00 00 00 00 00 00 00 00 00 00 00 00
       0.0 0.0 0.0 0.0
0001b0 00 00 00 00 00 00 00 00 00 00 00 00 00 00 00 00
       0.0 0.0 0.0 0.0
0001c0 00 00 00 00 00 00 00 00 00 00 00 00 00 00 00 00
       0.0 0.0 0.0 0.0
0001d0 00 00 00 00 00 00 00 00 00 00 00 00 00 00 00 00
       0.0 0.0 0.0 0.0
0001e0 00 00 00 00 00 00 00 00 00 00 00 00 00 00 00 00
       0.0 0.0 0.0 0.0
0001f0 00 00 00 00 00 00 00 00 00 00 00 00 00 00 00 00
       0.0 0.0 0.0 0.0

_net._net.2.weight f4 [128, 128]
000000 33 bf 27 3a ab b5 e0 3a 64 6d b5 b9 9b 40 41 ba
       0.00063990353 0.0017143985 -0.00034604513 -0.00073719927
000010 c7 ad 31 38 69 a4 8a b9 be de 2e ba dd a2 4e ba
       4.236193e-05 -0.00026443906 -0.00066707644 -0.0007882545
000020 84 c3 03 b9 de 0c 92 ba e6 94 3b 3a 23 6a 1e ba
       -0.00012565969 -0.0011142751 0.00071556715 -0.0006043037
000030 09 86 51 3a b2 40 cb 3a aa fb ea 3a 04 67 60 3a
       0.000799269 0.0015506952 0.0017927785 0.00085602724
000040 41 42 fc 39 82 65 98 ba 85 3c 01 ba 58 de 31 3a
       0.0004811455 -0.0011626931 -0.00049299776 0.0006785146
000050 b6 da 2a bb 5b d1 81 38 ab 55 bd b9 0d ab ad b9
       -0.0026070303 6.190195e-05 -0.00036112717 -0.00033124574
000060 0c 3c 1d 39 82 cc 11 bb 82 0e e1 3a f7 96 65 ba
       0.00014995056 -0.002224714 0.0017170461 -0.0008758152
000070 49 a6 b9 39 f3 22 48 ba 67 64 e9 39 58 f7 36 b9
       0.00035409842 -0.00076346024 0.0004451603 -0.00017449015
000080 d9 e1 91 3a 2d 58 30 ba f4 ee 26 ba 02 9d c3 39
       0.001112993 -0.00067270064 -0.0006368004 0.00037310278
000090 86 14 0f ba 57 e1 4b 3a a2 3c b4 39 82 3b e3 b9
       -0.00054580753 0.00077774137 0.0003437745 -0.0004334115
0000a0 bb c3 21 38 bb 48 f9 b9 33 47 c2 38 b3 ef 5e ba
       3.856768e-05 -0.0004754717 9.263903e-05 -0.0008504346
0000b0 f4 44 3b 3a 1b 29 a1 3a c7 9b a5 39 bb c5 9c 39
       0.00071437587 0.0012295576 0.00031587316 0.0002990196
0000c0 2e 26 0e 3b 49 24 d0 ba 12 9f 5a ba 19 b8 cb 39
       0.0021690237 -0.0015879954 -0.00083397434 0.0003885634
0000d0 75 e6 73 3a 29 a1 11 39 b3 e0 d0 b8 a4 e8 11 b9
       0.0009304055 0.00013888314 -9.9600664e-05 -0.00013914943
0000e0 17 7f 93 b9 69 f7 0e b9 26 76 cc 38 7b 47 5d ba
       -0.00028132714 -0.00013634343 9.749485e-05 -0.00084411324
0000f0 38 c9 a2 38 bf 43 9c 3a 8f ac 79 3a 0a 87 b0 b6
       7.762242e-05 0.0011922045 0.00095243094 -5.2609294e-06
000100 06 f5 12 ba 94 fa bf 3a 76 71 1e ba fb b5 26 39
       -0.00056059693 0.0014646822 -0.00060441287 0.00015898787
000110 f7 b3 82 39 70 7f a5 38 40 37 8f 3a 99 2c 3b 39
       0.00024929616 7.89155e-05 0.00109265 0.00017850324
000120 09 d8 4c 3a 1f 19 85 39 0e 74 5f ba 7d 11 17 3a
       0.0007814174 0.00025386453 -0.00085240684 0.0005762799
000130 99 50 db 39 b6 a5 13 3b 5b f7 97 3a 79 45 75 ba
       0.00041830985 0.0022529191 0.0011594103 -0.00093563605
000140 90 1d a1 38 dd a1 10 ba 20 5f 04 bb 19 d3 e6 b9
       7.682585e-05 -0.00055172836 -0.00201983 -0.000440263
000150 36 ca 17 ba 60 a2 05 ba d7 e3 a2 b6 96 11 8e ba
       -0.00057903246 -0.0005097743 -4.8545003e-06 -0.0010838981
000160 ef 0e a4 ba 60 43 85 3a e0 b7 a2 39 c4 77 0e 3a
       -0.0012516658 0.0010167174 0.00031036045 0.00054347166
000170 7b 56 ee b8 ee 6f 19 ba bd f4 98 3a a9 dd b2 39
       -0.000113648326 -0.00058531656 0.0011669617 0.00034115955
000180 c0 77 a0 3a 2d c9 2f ba 24 01 3e ba 45 88 43 39
       0.001224272 -0.0006705698 -0.0007248095 0.00018647414
000190 fb 48 b0 3a a6 4c 80 ba 1d f4 a9 3a f6 cd 21 ba
       0.0013449484 -0.0009788468 0.0012966428 -0.0006172353
0001a0 6d 86 46 ba 48 b4 15 3a 52 db 91 39 22 28 ca 3a
       -0.00075731316 0.0005710763 0.00027819962 0.0015423337
0001b0 99 89 91 3a 45 1c 3c 3a 4f 5a e3 b9 01 af 61 3a
       0.0011103629 0.00071758433 -0.000433641 0.00086091465
0001c0 79 d9 87 3a 8b 13 f8 ba 99 1a a2 b7 62 56 07 3a
       0.0010364495 -0.0018926723 -1.932429e-05 0.00051627134
0001d0 5c 8a 63 39 d3 ea 98 ba eb 1c a6 b9 e1 35 2a 3a
       0.0002169995 -0.0011666663 -0.00031683533 0.0006493014
0001e0 33 2f 97 38 8a 2f 03 ba 02 98 eb b9 5c 9a 7b b9
       7.2090326e-05 -0.0005004337 -0.00044935948 -0.00023994729
0001f0 5d 83 bf 3a 94 19 07 ba d7 dd 85 b9 2a a3 0b ba
       0.0014611293 -0.0005153653 -0.0002553302 -0.00053267425
000200 fe 40 b3 ba f3 6d 0a ba 77 10 cd b9 98 7d 0d b9
       -0.0013675985 -0.0005280666 -0.00039112914 -0.00013493595
000210 86 6e 40 ba 2e dd 0d ba e0 47 1e 39 ef 4b 82 ba
       -0.0007340688 -0.00054116815 0.0001509483 -0.0009940843
000220 c4 44 b0 39 20 0c 3f ba 9c d3 ae 39 c5 37 ec b9
       0.0003362057 -0.00072878785 0.00033345527 -0.0004505498
000230 c5 14 25 ba d3 0c ab b9 92 5a 99 b8 d6 a0 96 ba
       -0.00062973454 -0.00032625216 -7.3124786e-05 -0.0011492025
000240 24 da 1c ba 9b f5 06 3a ae 3b 52 3a 70 e3 d4 3a
       -0.0005983433 0.00051482924 0.0008019757 0.0016242098
000250 0c 9e 7a b9 49 f9 8a ba aa a8 52 ba 50 37 72 ba
       -0.00023900735 -0.0010602857 -0.0008035997 -0.00092398096
000260 7b d8 78 ba 9d e3 0f ba f6 2d 16 ba f3 67 f2 39
       -0.00094927073 -0.0005488934 -0.00057288946 0.00046235285
000270 18 ed de b9 0f 35 7e 39 c7 7d 07 ba 52 f2 16 3a
       -0.00042519788 0.00024243094 -0.00051685836 0.00057581544
000280 5a 43 8d 3a fe e9 85 3a 4f b8 3b b9 90 66 85 b9
       0.0010777519 0.001021683 -0.0001790237 -0.00025444152
000290 7e 6a ec b9 ae eb 38 3a 5e a2 94 38 02 bb d5 b9
       -0.0004509277 0.0007054162 7.087433e-05 -0.00040765858
0002a0 e5 d0 6a 3a 17 f9 fb b9 ab 32 bf 38 3b 8d c3 b8
       0.00089575193 -0.00048060037 9.1170274e-05 -9.324631e-05
0002b0 f9 e5 e5 3a 81 8a f2 39 bc 6a 11 3a b5 3d 6e b8
       0.0017539851 0.0004626103 0.00055472157 -5.680109e-05
0002c0 6b da 93 3a b7 4a 2b 3a 79 84 4b 39 ce 94 5e ba
       0.0011280304 0.00065342657 0.00019408939 -0.00084908016
0002d0 4a 8d f8 b9 0a ce 4f 3a 39 a8 5b ba fd 1a c1 b6
       -0.00047407515 0.00079271256 -0.0008379254 -5.75499e-06
0002e0 67 3b 4f 3a b6 e4 0c 3a 30 28 80 ba 79 4c 35 ba
       0.0007905275 0.0005374657 -0.0009777602 -0.00069159974
0002f0 40 52 f6 39 4e c7 62 3a 2f 6b 3c 3a a6 39 03 39
       0.00046982057 0.00086509145 0.00071876025 0.00012514609
000300 18 9b 17 b9 f4 66 8f 3a 62 a1 e6 3a ff 61 12 b8
       -0.00014458259 0.0010940717 0.0017595703 -3.490038e-05
000310 e9 8e 02 3b 9f 23 05 bb 77 f0 9d 3a 94 13 32 ba
       0.0019921607 -0.0020315421 0.0012049814 -0.00067930785
000320 17 8f 4e b8 90 2a fb 3a 1d 68 b3 ba 97 7f c4 ba
       -4.924749e-05 0.0019162465 -0.0013687644 -0.0014991638
000330 20 b5 bf ba 66 06 f1 b5 9e 53 ac 3a ab bf f6 39
       -0.0014626123 -1.7957761e-06 0.0013147478 0.0004706358
000340 f6 ea 9c 3a 5c 1b 04 b9 de 74 f2 39 87 49 c3 3a
       0.0011971879 -0.00012598693 0.0004624491 0.0014899232
000350 99 83 20 3a 92 9f ad b9 a7 db 1d 3a 89 de e0 3a
       0.0006123125 -0.0003311602 0.00060218055 0.0017156164
000360 fb 37 4c 38 4b c1 9b b8 3e aa 78 3a fb 27 bc b8
       4.8689526e-05 -7.4269796e-05 0.0009485817 -8.9719855e-05
000370 6e f0 a8 b8 dc 64 9d 38 80 bd 53 b9 44 f5 57 b8
       -8.055648e-05 7.50513e-05 -0.00020193122 -5.1488416e-05
000380 03 0e 15 bb 6d f8 c4 ba f3 02 8f ba bc 96 fb 39
       -0.0022743947 -0.001502765 -0.0010910913 0.00047986757
000390 0e 53 2f b9 1c 0e 8c 39 c5 9d c6 3a 1d 47 3d 3a
       -0.00016720241 0.00026713393 0.001515322 0.00072203745
0003a0 c1 6e 46 b9 1d 19 88 b9 3e 5b 7e b9 6e 58 02 39
       -0.0001892401 -0.00025958652 -0.00024257318 0.00012430709
0003b0 f2 36 9e ba 94 32 a7 ba 2f d4 2a 3a 80 c6 ac ba
       -0.0012070818 -0.0012756162 0.0006516603 -0.0013181716
0003c0 53 c4 49 ba 85 a6 92 ba 20 52 15 38 a5 fd 4c 3a
       -0.0007696796 -0.0011188543 3.5600853e-05 0.00078197784
0003d0 77 ab 2f ba 14 ff 9e b9 e6 6a 7d 3a a6 66 3f b9
       -0.00067012705 -0.00030326156 0.0009667113 -0.00018253419
0003e0 01 0a 51 3a b9 e5 ad b9 8b 07 d4 39 d2 b1 9a 39
       0.0007974208 -0.00033168288 0.0004044141 0.00029505655
0003f0 ab 05 63 ba 51 6f 15 ba 2e d2 96 b8 73 50 50 3b
       -0.00086602074 -0.00057004864 -7.1917064e-05 0.0031786233

_net._net.2.bias f4 [128]
000000 00 00 00 00 00 00 00 00 00 00 00 00 00 00 00 00
       0.0 0.0 0.0 0.0
000010 00 00 00 00 00 00 00 00 00 00 00 00 00 00 00 00
       0.0 0.0 0.0 0.0
000020 00 00 00 00 00 00 00 00 00 00 00 00 00 00 00 00
       0.0 0.0 0.0 0.0
000030 00 00 00 00 00 00 00 00 00 00 00 00 00 00 00 00
       0.0 0.0 0.0 0.0
000040 00 00 00 00 00 00 00 00 00 00 00 00 00 00 00 00
       0.0 0.0 0.0 0.0
000050 00 00 00 00 00 00 00 00 00 00 00 00 00 00 00 00
       0.0 0.0 0.0 0.0
000060 00 00 00 00 00 00 00 00 00 00 00 00 00 00 00 00
       0.0 0.0 0.0 0.0
000070 00 00 00 00 00 00 00 00 00 00 00 00 00 00 00 00
       0.0 0.0 0.0 0.0
000080 00 00 00 00 00 00 00 00 00 00 00 00 00 00 00 00
       0.0 0.0 0.0 0.0
000090 00 00 00 00 00 00 00 00 00 00 00 00 00 00 00 00
       0.0 0.0 0.0 0.0
0000a0 00 00 00 00 00 00 00 00 00 00 00 00 00 00 00 00
       0.0 0.0 0.0 0.0
0000b0 00 00 00 00 00 00 00 00 00 00 00 00 00 00 00 00
       0.0 0.0 0.0 0.0
0000c0 00 00 00 00 00 00 00 00 00 00 00 00 00 00 00 00
       0.0 0.0 0.0 0.0
0000d0 00 00 00 00 00 00 00 00 00 00 00 00 00 00 00 00
       0.0 0.0 0.0 0.0
0000e0 00 00 00 00 00 00 00 00 00 00 00 00 00 00 00 00
       0.0 0.0 0.0 0.0
0000f0 00 00 00 00 00 00 00 00 00 00 00 00 00 00 00 00
       0.0 0.0 0.0 0.0
000100 00 00 00 00 00 00 00 00 00 00 00 00 00 00 00 00
       0.0 0.0 0.0 0.0
000110 00 00 00 00 00 00 00 00 00 00 00 00 00 00 00 00
       0.0 0.0 0.0 0.0
000120 00 00 00 00 00 00 00 00 00 00 00 00 00 00 00 00
       0.0 0.0 0.0 0.0
000130 00 00 00 00 00 00 00 00 00 00 00 00 00 00 00 00
       0.0 0.0 0.0 0.0
000140 00 00 00 00 00 00 00 00 00 00 00 00 00 00 00 00
       0.0 0.0 0.0 0.0
000150 00 00 00 00 00 00 00 00 00 00 00 00 00 00 00 00
       0.0 0.0 0.0 0.0
000160 00 00 00 00 00 00 00 00 00 00 00 00 00 00 00 00
       0.0 0.0 0.0 0.0
000170 00 00 00 00 00 00 00 00 00 00 00 00 00 00 00 00
       0.0 0.0 0.0 0.0
000180 00 00 00 00 00 00 00 00 00 00 00 00 00 00 00 00
       0.0 0.0 0.0 0.0
000190 00 00 00 00 00 00 00 00 00 00 00 00 00 00 00 00
       0.0 0.0 0.0 0.0
0001a0 00 00 00 00 00 00 00 00 00 00 00 00 00 00 00 00
       0.0 0.0 0.0 0.0
0001b0 00 00 00 00 00 00 00 00 00 00 00 00 00 00 00 00
       0.0 0.0 0.0 0.0
0001c0 00 00 00 00 00 00 00 00 00 00 00 00 00 00 00 00
       0.0 0.0 0.0 0.0
0001d0 00 00 00 00 00 00 00 00 00 00 00 00 00 00 00 00
       0.0 0.0 0.0 0.0
0001e0 00 00 00 00 00 00 00 00 00 00 00 00 00 00 00 00
       0.0 0.0 0.0 0.0
0001f0 00 00 00 00 00 00 00 00 00 00 00 00 00 00 00 00
       0.0 0.0 0.0 0.0

_net._net.4.weight f4 [128, 128]
000000 a4 48 d5 b9 2f 77 c7 ba 9b ad d7 38 64 69 30 ba
       -0.00040680647 -0.0015218015 0.000102843354 -0.00067295716
000010 41 af 47 39 c2 44 14 b9 aa d6 a9 39 7e 69 2c 3a
       0.00019043406 -0.00014139994 0.0003239413 0.0006576999
000020 de b7 40 3a 94 3a ac b9 2f 67 ea b8 eb 58 9e 3a
       0.0007351617 -0.0003285004 -0.00011177209 0.0012080943
000030 2b 6b 84 3a 67 e8 be ba d9 7c ba 3a 62 e0 4c 39
       0.0010102739 -0.0014565111 0.0014227881 0.00019538545
000040 30 03 c0 3a 02 87 c4 3a 4e 44 71 ba e5 b5 87 ba
       0.0014649387 0.0014993849 -0.00092035986 -0.0010353891
000050 8e 54 96 3a 5d 77 e4 39 58 84 3a 3a c6 1c 50 3a
       0.0011469291 0.0004357648 0.00071150577 0.0007938858
000060 f2 38 41 39 54 4f 61 39 46 1f 1d b9 ca c3 99 39
       0.00018427128 0.00021487224 -0.00014984337 0.00029328308
000070 54 54 df 37 bb 37 b0 ba 1b c9 4f 38 4d c7 44 3a
       2.662294e-05 -0.0013444343 4.953994e-05 0.0007506505
000080 ec 3b 4f 3a 80 4e 6d ba 3b cd 7c 3a 0b 25 04 ba
       0.00079053524 -0.000905253 0.0009643619 -0.000504092
000090 87 3d aa 39 0f 40 40 39 fd 17 ff b9 98 53 f7 b9
       0.00032470768 0.0001833441 -0.00048655263 -0.00047173793
0000a0 5c 26 91 39 52 d9 4a b9 bb 0c b9 3a 8f 93 bc 39
       0.00027685135 -0.0001934518 0.0014118174 0.00035968094
0000b0 70 95 68 3a 50 36 05 bb fc ca f4 3a 06 10 4c 39
       0.00088723656 -0.0020326562 0.0018676217 0.00019460925
0000c0 24 37 ba b9 ca 1e b7 b9 4d 59 0d ba 00 e3 5e ba
       -0.00035517768 -0.0003492742 -0.000539203 -0.00085024536
0000d0 1e 85 57 b7 9c b8 53 3a 58 8f a4 b8 39 71 9f 39
       -1.2845992e-05 0.000807652 -7.846829e-05 0.000304112
0000e0 75 5a 3f b9 1a 19 81 ba ee f1 17 b9 7b 7a a1 ba
       -0.00018248877 -0.00098494 -0.00014490608 -0.0012319827
0000f0 17 22 84 ba 35 fe e1 3a 1d 48 f0 ba 19 ab 46 b9
       -0.001008096 0.0017241897 -0.0018332038 -0.0001894649
000100 67 de 6a 3a 06 4c cf ba e7 a7 8b 3a f6 78 02 38
       0.0008959532 -0.0015815503 0.0010654897 3.110707e-05
000110 4e 4b 5d 3a 6e 5d c0 39 ae e4 34 ba f9 ac 87 3a
       0.0008441702 0.00036690704 -0.0006900531 0.0010351232
000120 e6 7c 2b ba 36 ff 17 3a 2b 4f 2f ba e9 40 c1 39
       -0.00065417436 0.0005798222 -0.0006687517 0.0003686019
000130 bb 8d a2 39 72 d1 15 3b d5 2b b4 39 a6 37 8a 39
       0.00031004645 0.0022860435 0.00034364933 0.00026362872
000140 ad 1f 26 ba f8 19 96 39 1e 9e f5 b9 14 f0 45 39
       -0.00063371175 0.00028629578 -0.00046847848 0.0001887682
000150 63 bb f5 39 c7 34 9e 3a a4 3f b7 39 c3 96 68 ba
       0.00046869655 0.0012070172 0.00034951896 -0.0008872563
000160 eb 9e 3f 3a e2 d2 59 ba be 40 33 ba 3d d2 0d 3b
       0.00073097524 -0.0008309317 -0.00068379554 0.0021640204
000170 c9 04 81 ba aa a1 34 3a ae 1a 6b b9 80 5d 92 3a
       -0.0009843345 0.0006890545 -0.00022421285 0.0011166781
000180 e9 cb 23 3a 40 74 00 ba af b6 25 ba c0 b6 72 ba
       0.00062483415 -0.0004900135 -0.00063214725 -0.0009258799
000190 b9 0e 96 b8 a0 ae 28 3a 22 ce 8e 3a 30 b2 51 b9
       -7.1553e-05 0.00064347126 0.0010895173 -0.00019998173
0001a0 3d 53 0c ba 85 59 c8 b8 d2 c9 9f ba 59 0b 3a 3a
       -0.00053529796 -9.5534175e-05 -0.0012190884 0.0007097028
0001b0 38 3e ad ba 8f 4e 2b ba 5d b9 fe b9 ec e1 1f 3a
       -0.0013217395 -0.00065348385 -0.00048584762 0.00060990336
0001c0 4f 71 2a 39 85 7a d7 3a 49 80 43 3a d7 ba 56 3a
       0.00016254674 0.0016439712 0.00074577756 0.00081912935
0001d0 d2 53 d2 b9 29 6e 9b b9 0c 8b d7 b8 53 2c df ba
       -0.00040116772 -0.0002964598 -0.000102778984 -0.001702676
0001e0 52 93 a6 ba 27 bf 11 ba a2 8b 75 3a 17 3c 8d 39
       -0.00127087 -0.0005559795 0.0009366815 0.00026938386
0001f0 13 98 cd b9 75 a7 1d bb f6 a1 9d 37 f5 ce 89 ba
       -0.0003921395 -0.002405611 1.8791277e-05 -0.0010513949
000200 57 37 b5 39 e3 e1 ee b9 13 0b e8 b9 59 e5 21 39
       0.00034564242 -0.00045563196 -0.0004425874 0.00015439595
000210 cd c1 0a b7 32 3e b0 38 e4 8a 88 39 09 9b 92 39
       -8.270564e-06 8.403919e-05 0.00026043423 0.000279628
000220 9e c6 da b9 57 16 b1 3a 81 db d1 b9 c9 0b 03 3a
       -0.00041728182 0.0013510686 -0.0004002713 0.00049990095
000230 92 da 37 38 4f 30 06 ba 58 cc c0 b9 94 7a a7 3a
       4.383416e-05 -0.0005118893 -0.00036773342 0.001277762
000240 b7 48 a0 ba 69 d3 db 39 44 09 a0 39 f9 e4 6f ba
       -0.0012228702 0.00041928448 0.00030524482 -0.0009151246
000250 41 06 2f ba 93 6f a8 ba 67 05 99 38 4b 9a e0 3a
       -0.0006676652 -0.0012850635 7.296615e-05 0.0017135827
000260 35 43 ca 3a af 38 10 b9 09 69 bd 37 c7 b8 ba 39
       0.0015431406 -0.00013754026 2.2579467e-05 0.00035614354
000270 78 82 4a 3a 87 30 52 b8 92 3e 9f 38 9c cf a0 3a
       0.000772513 -5.0113096e-05 7.5933654e-05 0.0012268904
000280 4f ce 28 ba 00 f4 8b 3a 02 d3 36 3a 9b c0 a6 ba
       -0.0006439434 0.0010677576 0.00069741916 -0.0012722196
000290 4b d3 f0 38 3b 9b a9 3a 75 40 64 39 79 80 d2 3a
       0.00011483448 0.0012939939 0.00021767787 0.0016060016
0002a0 77 14 80 3a 94 fb 11 3b 67 3e 96 3a 67 f6 9b b9
       0.0009771724 0.0022275196 0.0011462689 -0.00029747488
0002b0 ec b5 8f ba 67 80 3f 3a d0 e3 cf 3a 46 20 87 3a
       -0.0010964251 0.0007305205 0.001586074 0.0010309301
0002c0 40 1f 80 b9 a9 65 de b8 31 dc a0 39 be af a6 b9
       -0.00024437346 -0.000106047206 0.00030681634 -0.00031792925
0002d0 b6 42 24 b9 57 bd bf 39 81 59 e9 b9 8b 9e 11 ba
       -0.0001566511 0.00036571428 -0.0004450791 -0.0005554936
0002e0 ff c7 8b 3a f9 5c d5 39 0e 56 2b ba 05 31 d2 39
       0.0010664462 0.00040695796 -0.00065359555 0.00040090844
0002f0 b9 00 8e 39 32 ea a9 ba 64 87 43 39 52 2c e7 38
       0.0002708489 -0.0012963472 0.00018647086 0.00011023194
000300 41 cd 51 ba 3d 60 8f ba 3c 3c 32 3a 02 4e cc ba
       -0.00080033025 -0.0010938715 0.0006799137 -0.0015587213
000310 d3 0a 23 3a 7c a3 5e ba ef f0 48 3a 2a b1 f7 b8
       0.00062195695 -0.0008492989 0.00076652964 -0.00011810877
000320 8d 5f 00 39 cd cb 40 ba 90 98 9f b9 13 f3 2f ba
       0.00012242627 -0.00073545874 -0.0003044051 -0.0006711941
000330 f7 63 0e 39 17 3f 5a ba e6 54 ca 39 ab 29 c6 ba
       0.00013579415 -0.0008325441 0.00038591697 -0.0015118619
000340 37 b4 b1 ba bd b6 d6 39 7d 96 be b9 ee 2e 18 39
       -0.0013557737 0.0004095341 -0.00036351747 0.00014513332
000350 6d 0a 89 ba 2c ca d4 3a 37 93 40 b9 97 5e 85 ba
       -0.0010455378 0.0016234568 -0.00018365389 -0.0010175285
000360 82 1b bd ba c7 c6 9c 38 e0 00 a6 ba 19 bb 3c ba
       -0.0014427754 7.475685e-05 -0.0012665056 -0.00071995106
000370 52 f7 ce 3a c5 d8 95 3a 01 ab a8 3a 50 2d ee 3a
       0.001579026 0.00114324 0.0012868346 0.0018171463
000380 1f 9e 04 ba 13 59 f9 b9 05 fe 28 b9 50 1d 84 39
       -0.0005058962 -0.00047559346 -0.00016116358 0.00025198841
000390 94 39 92 ba b8 d6 85 b9 4a 95 b5 ba 81 dc 0c bb
       -0.0011156076 -0.00025527715 -0.0013853696 -0.0021493735
0003a0 57 e8 90 b8 99 ae a2 ba 7b 5f 89 b6 21 66 89 3a
       -6.909732e-05 -0.0012411653 -4.0940336e-06 0.0010482707
0003b0 f7 b1 c6 3a 00 8a 29 39 c1 5c 2a 39 75 48 6b ba
       0.0015159239 0.00016168505 0.00016247017 -0.00089753355
0003c0 92 fa 27 3a af 9b cb ba e6 fb 6b b9 b0 09 69 b9
       0.00064078823 -0.0015534068 -0.00022505186 -0.0002222422
0003d0 1c 9d bb ba 61 c7 59 ba 4b 5b 63 3a 87 b3 eb b9
       -0.001431379 -0.0008307603 0.00086729665 -0.0004495645
0003e0 e1 7a 99 ba d9 1a c5 3a 7d b9 22 ba a5 8a c4 39
       -0.0011709594 0.0015037908 -0.00062074495 0.0003748733
0003f0 46 5f 17 ba 6e e2 95 ba ce ba 45 39 01 39 89 b9
       -0.000577439 -0.0011435279 0.00018856974 -0.00026173147

_net._net.4.bias f4 [128]
000000 00 00 00 00 00 00 00 00 00 00 00 00 00 00 00 00
       0.0 0.0 0.0 0.0
000010 00 00 00 00 00 00 00 00 00 00 00 00 00 00 00 00
       0.0 0.0 0.0 0.0
000020 00 00 00 00 00 00 00 00 00 00 00 00 00 00 00 00
       0.0 0.0 0.0 0.0
000030 00 00 00 00 00 00 00 00 00 00 00 00 00 00 00 00
       0.0 0.0 0.0 0.0
000040 00 00 00 00 00 00 00 00 00 00 00 00 00 00 00 00
       0.0 0.0 0.0 0.0
000050 00 00 00 00 00 00 00 00 00 00 00 00 00 00 00 00
       0.0 0.0 0.0 0.0
000060 00 00 00 00 00 00 00 00 00 00 00 00 00 00 00 00
       0.0 0.0 0.0 0.0
000070 00 00 00 00 00 00 00 00 00 00 00 00 00 00 00 00
       0.0 0.0 0.0 0.0
000080 00 00 00 00 00 00 00 00 00 00 00 00 00 00 00 00
       0.0 0.0 0.0 0.0
000090 00 00 00 00 00 00 00 00 00 00 00 00 00 00 00 00
       0.0 0.0 0.0 0.0
0000a0 00 00 00 00 00 00 00 00 00 00 00 00 00 00 00 00
       0.0 0.0 0.0 0.0
0000b0 00 00 00 00 00 00 00 00 00 00 00 00 00 00 00 00
       0.0 0.0 0.0 0.0
0000c0 00 00 00 00 00 00 00 00 00 00 00 00 00 00 00 00
       0.0 0.0 0.0 0.0
0000d0 00 00 00 00 00 00 00 00 00 00 00 00 00 00 00 00
       0.0 0.0 0.0 0.0
0000e0 00 00 00 00 00 00 00 00 00 00 00 00 00 00 00 00
       0.0 0.0 0.0 0.0
0000f0 00 00 00 00 00 00 00 00 00 00 00 00 00 00 00 00
       0.0 0.0 0.0 0.0
000100 00 00 00 00 00 00 00 00 00 00 00 00 00 00 00 00
       0.0 0.0 0.0 0.0
000110 00 00 00 00 00 00 00 00 00 00 00 00 00 00 00 00
       0.0 0.0 0.0 0.0
000120 00 00 00 00 00 00 00 00 00 00 00 00 00 00 00 00
       0.0 0.0 0.0 0.0
000130 00 00 00 00 00 00 00 00 00 00 00 00 00 00 00 00
       0.0 0.0 0.0 0.0
000140 00 00 00 00 00 00 00 00 00 00 00 00 00 00 00 00
       0.0 0.0 0.0 0.0
000150 00 00 00 00 00 00 00 00 00 00 00 00 00 00 00 00
       0.0 0.0 0.0 0.0
000160 00 00 00 00 00 00 00 00 00 00 00 00 00 00 00 00
       0.0 0.0 0.0 0.0
000170 00 00 00 00 00 00 00 00 00 00 00 00 00 00 00 00
       0.0 0.0 0.0 0.0
000180 00 00 00 00 00 00 00 00 00 00 00 00 00 00 00 00
       0.0 0.0 0.0 0.0
000190 00 00 00 00 00 00 00 00 00 00 00 00 00 00 00 00
       0.0 0.0 0.0 0.0
0001a0 00 00 00 00 00 00 00 00 00 00 00 00 00 00 00 00
       0.0 0.0 0.0 0.0
0001b0 00 00 00 00 00 00 00 00 00 00 00 00 00 00 00 00
       0.0 0.0 0.0 0.0
0001c0 00 00 00 00 00 00 00 00 00 00 00 00 00 00 00 00
       0.0 0.0 0.0 0.0
0001d0 00 00 00 00 00 00 00 00 00 00 00 00 00 00 00 00
       0.0 0.0 0.0 0.0
0001e0 00 00 00 00 00 00 00 00 00 00 00 00 00 00 00 00
       0.0 0.0 0.0 0.0
0001f0 00 00 00 00 00 00 00 00 00 00 00 00 00 00 00 00
       0.0 0.0 0.0 0.0

_net._net.6.weight f4 [128, 128]
000000 5c 69 3c ba 2b f7 42 3a 20 c4 da 38 40 89 44 3a
       -0.00071873306 0.00074373436 0.00010431581 0.00074972585
000010 3e 00 e2 39 18 9e 0f ba d1 39 18 ba 54 d8 35 ba
       0.0004310626 -0.0005478575 -0.0005806955 -0.00069368375
000020 94 d1 92 39 5d 9b a5 3a d4 2b 20 39 d2 41 d0 3a
       0.00028003438 0.0012634803 0.00015275116 0.0015888757
000030 fc b3 af ba cf 2f 06 bb bb 1d 5f 3a 9b 02 9e 39
       -0.001340508 -0.0020475273 0.0008511205 0.0003013805
000040 c6 d9 d3 39 16 c2 a3 3a ac 4b 77 ba 27 bd 4a 39
       0.0004040731 0.0012493755 -0.0009433578 0.00019334686
000050 12 4a 54 39 83 2e 74 ba 85 df 41 38 18 93 c9 3a
       0.00020245489 -0.0009314792 4.6222955e-05 0.001537892
000060 55 47 ec 39 10 b0 cb ba b9 72 e9 b9 e2 f2 ff 39
       0.00045066574 -0.0015540142 -0.00044526698 0.00048818352
000070 20 d9 01 3a b2 bc 1c 3a 84 57 27 3a e9 6e 7c 38
       0.00049533136 0.00059790455 0.0006383585 6.0184775e-05
000080 eb 3d 92 ba de ff db b9 89 4f 0b 3a bd 3c b1 b9
       -0.0011157369 -0.0004196157 0.0005314281 -0.00033805324
000090 61 4e 33 b9 72 09 b5 39 97 10 9d ba a2 ff 2f b9
       -0.00017099969 0.00034530048 -0.0011983094 -0.00016784531
0000a0 f3 99 0f b9 79 dd 52 3a ab 1e 56 3a 00 ec 3d 38
       -0.00013694893 0.0008043866 0.0008168022 4.5280904e-05
0000b0 87 2b a7 39 34 3e d8 b9 d0 6c 81 ba b3 15 b0 3a
       0.00031885153 -0.00041245075 -0.0009874348 0.0013434201
0000c0 92 51 b8 39 90 37 76 3a 54 6c 93 b9 62 0f 1a bb
       0.0003515599 0.0009392435 -0.00028118736 -0.0023507704
0000d0 15 32 fd 39 33 54 80 b8 78 bf 89 b9 4e f0 d0 39
       0.00048293234 -6.119199e-05 -0.00026273332 0.00039851893
0000e0 5b f1 9d 39 50 d9 ce 3a 7e f0 9d 39 29 e1 d8 b8
       0.00030125197 0.0015781317 0.00030124554 -0.00010341622
0000f0 ea a3 d3 39 d9 37 4b 3a b5 10 ef 39 69 56 4d 3a
       0.00040367182 0.00077521574 0.0004559808 0.00078330055
000100 d2 2d 07 3b a4 be 97 b6 3b 15 73 3a ca 51 38 3a
       0.0020626676 -4.522344e-06 0.0009272878 0.00070312305
000110 47 09 49 38 44 60 d0 ba b4 1a 27 3a bb 9a a2 b9
       4.7930775e-05 -0.001589783 0.00063745235 -0.0003101433
000120 d5 46 c2 3a 41 fb 78 3a 8e ef 8a 39 81 eb 87 ba
       0.0014822135 0.0009497889 0.00026499893 -0.0010369868
000130 97 5d 44 3a 53 ec c8 b8 6c 9f 1a ba dc 65 f0 b9
       0.00074907526 -9.580762e-05 -0.00058983895 -0.00045852258
000140 57 ed ce ba 17 aa 2f 39 7e 70 dd 3a f2 bd 06 39
       -0.0015787286 0.00016752664 0.0016894487 0.00012849996
000150 44 ca 0d 3a 1e 4b 52 38 8a e4 5c 3a 17 16 14 b9
       0.0005408863 5.013786e-05 0.0008426389 -0.00014122609
000160 6f 69 c7 ba dd 8d ce 3a e2 cf 76 ba f4 23 83 3a
       -0.0015213917 0.0015758831 -0.0009415132 0.0010005222
000170 e3 b6 68 39 f4 97 0e bb 70 b1 51 38 34 f6 5a 39
       0.00022193375 -0.0021758052 4.9994735e-05 0.00020881818
000180 26 b3 06 ba 94 5f 54 39 d9 5c f2 3a f6 48 a4 35
       -0.00051383895 0.00020253501 0.0018490806 1.2240187e-06
000190 70 70 34 b8 a3 f3 7e b8 24 de cb 3a 52 c9 0b 3a
       -4.302006e-05 -6.0785223e-05 0.0015553874 0.0005332428
0001a0 02 b8 76 ba 42 2c b0 b9 7b e3 45 3a f0 e8 58 39
       -0.00094115746 -0.0003360231 0.0007548851 0.00020686141
0001b0 19 10 8c ba 39 f5 0b 3a e9 80 a3 b9 5e 15 cf 3a
       -0.001068595 0.000533897 -0.00031185828 0.0015799215
0001c0 4a d8 e3 3a a9 5a 67 b9 69 d8 71 3a d3 2b 87 b9
       0.0017383185 -0.0002206365 0.0009225668 -0.00025781858
0001d0 5e 95 49 3a a5 90 17 ba 1e 74 a7 b8 1f b0 8f 39
       0.0007689799 -0.00057817466 -7.984809e-05 0.00027406306
0001e0 aa ab ba 3a 7a cb 83 3a 0d 9c a6 39 70 11 af b7
       0.0014241834 0.0010055148 0.00031778254 -2.0869746e-05
0001f0 d5 2d 4d 3a 30 50 13 ba bc 0b 72 ba cf ce e0 3a
       0.0007826959 -0.0005619554 -0.0009233316 0.0017151478
000200 4f 8b 0d 3a 47 8f 9c 3a 84 d9 38 ba 4d d0 ac b9
       0.0005399482 0.0011944555 -0.00070514553 -0.00032961593
000210 07 83 00 b9 69 4f 87 3a 78 d1 e3 b8 03 fc 85 ba
       -0.00012255843 0.0010323349 -0.0001086322 -0.00102222
000220 c2 f5 97 3a 41 ab 5b 3a 43 31 71 b9 38 b2 9a 39
       0.0011593627 0.0008379706 -0.00023001902 0.00029505952
000230 f9 ca 29 3a 90 d6 7e 3a 80 67 b1 b8 73 2c e8 ba
       0.00064770837 0.00097213034 -8.459296e-05 -0.0017713442
000240 44 96 bf b9 24 32 18 ba 07 db 28 b9 13 12 30 3a
       -0.00036542316 -0.00058058114 -0.00016103323 0.00067165605
000250 a1 a4 be ba fc 95 75 ba 15 c3 1c ba a9 36 26 3a
       -0.0014544913 -0.0009368358 -0.0005979997 0.00063405425
000260 9d 30 91 39 c3 a6 23 ba 3c bf c8 3a a0 8a ce ba
       0.00027692775 -0.0006242806 0.0015315781 -0.0015757866
000270 ef d2 3f ba 77 c8 95 b9 30 bc 04 b9 41 0f 50 ba
       -0.00073175033 -0.00028568853 -0.00012658606 -0.00079368433
000280 19 1a e0 39 b2 df 66 b9 05 42 92 ba 17 e6 fc b7
       0.00042744054 -0.00022017842 -0.0011158591 -3.0147885e-05
000290 ab be b2 ba 40 5e 19 3a 10 65 22 3a d3 ca 0e ba
       -0.0013637146 0.0005850531 0.0006194869 -0.0005447093
0002a0 87 22 9f 3a 4b bf 01 39 13 2c ab 39 a2 2f 22 3a
       0.0012141027 0.00012373661 0.000326485 0.00061869074
0002b0 dc b2 b6 3a 56 3d 0f 3b bb 45 35 ba 49 12 dc b9
       0.0013938802 0.0021856627 -0.00069149927 -0.00041975293
0002c0 c2 e1 f2 b9 80 d2 06 b8 2d f8 00 3b ac 29 14 ba
       -0.0004632604 -3.2144133e-05 0.0019679174 -0.00056519615
0002d0 22 36 e6 3a 08 af 18 ba 27 c3 41 ba bf d2 02 b8
       0.001756374 -0.00058244215 -0.00073914457 -3.1190688e-05
0002e0 e1 99 cd b8 b7 64 8f b9 bc de 32 b9 1b e0 cb ba
       -9.803824e-05 -0.00027350124 -0.00017058378 -0.001555446
0002f0 79 e2 6b b9 f2 bc f3 b9 fb 23 ae ba 61 86 4f 38
       -0.00022495714 -0.00046489347 -0.001328587 4.9477796e-05
000300 33 dc 96 b9 9f 09 14 ba f4 3c 69 b9 4f b1 d2 38
       -0.0002877429 -0.00056471856 -0.00022243318 0.000100466066
000310 b0 89 4e 39 b7 2f 04 ba d7 b2 a6 b9 83 c1 16 ba
       0.00019696984 -0.00050425105 -0.00031795233 -0.00057508814
000320 b8 79 3c 3a 30 33 ce b8 05 6b a9 b9 7f 8e 93 b8
       0.00071897684 -9.83238e-05 -0.00032313928 -7.036048e-05
000330 6f 57 e0 b9 32 68 71 ba 9b 38 53 ba 52 76 a8 ba
       -0.00042789752 -0.0009208947 -0.0008057446 -0.0012852645
000340 7b 19 3e ba a4 72 92 ba 0d da 8b 3a 96 6d 1d 3a
       -0.00072517217 -0.0011173082 0.0010669843 0.0006005404
000350 c7 97 e6 ba f9 02 5f 38 86 7f 05 ba 9b 2b 7c b9
       -0.0017592841 5.317011e-05 -0.000509255 -0.00024048837
000360 71 6f 86 ba f4 b5 30 3a cd 3c 93 b9 04 e2 38 ba
       -0.0010256601 0.00067409803 -0.00028083325 -0.0007052722
000370 0b 5c 2d ba f4 32 87 3a 6e 56 2c 38 ea 41 d0 39
       -0.0006613142 0.0010314868 4.108849e-05 0.0003972196
000380 ab 59 57 3a 84 05 b1 39 79 a9 88 b9 aa 1e 38 39
       0.00082149607 0.0003376418 -0.00026066208 0.0001755903
000390 a9 35 11 b9 54 4e ff b8 ef 52 21 ba 61 52 06 39
       -0.00013848268 -0.00012173937 -0.00061540207 0.00012809924
0003a0 04 be 58 38 ef 8e 43 3a 93 3d 5f 3b b0 b0 08 3a
       5.167538e-05 0.00074599584 0.00340638 0.0005214317
0003b0 ab c4 d1 38 51 7f 07 39 fb 52 77 b9 35 0f c5 b8
       0.00010002529 0.00012922032 -0.00023586668 -9.3965245e-05
0003c0 2d 16 a6 ba 4f 0a 02 ba 39 80 14 39 5c 38 8a ba
       -0.0012671404 -0.00049606425 0.00014162147 -0.0010545361
0003d0 19 87 6f 3a 25 5a 25 3b 25 45 50 39 ae fc 2d 3b
       0.00091372576 0.0025230732 0.00019862184 0.0026548314
0003e0 21 20 30 3a ee 69 7d b9 cc 0a f4 37 0b 9e ea b9
       0.0006718655 -0.00024167422 2.9092094e-05 -0.0004474971
0003f0 01 d9 88 39 d5 81 7c ba 02 41 ce 3a 1e 98 53 39
       0.00026101622 -0.00096323836 0.0015735927 0.00020179196

_net._net.6.bias f4 [128]
000000 00 00 00 00 00 00 00 00 00 00 00 00 00 00 00 00
       0.0 0.0 0.0 0.0
000010 00 00 00 00 00 00 00 00 00 00 00 00 00 00 00 00
       0.0 0.0 0.0 0.0
000020 00 00 00 00 00 00 00 00 00 00 00 00 00 00 00 00
       0.0 0.0 0.0 0.0
000030 00 00 00 00 00 00 00 00 00 00 00 00 00 00 00 00
       0.0 0.0 0.0 0.0
000040 00 00 00 00 00 00 00 00 00 00 00 00 00 00 00 00
       0.0 0.0 0.0 0.0
000050 00 00 00 00 00 00 00 00 00 00 00 00 00 00 00 00
       0.0 0.0 0.0 0.0
000060 00 00 00 00 00 00 00 00 00 00 00 00 00 00 00 00
       0.0 0.0 0.0 0.0
000070 00 00 00 00 00 00 00 00 00 00 00 00 00 00 00 00
       0.0 0.0 0.0 0.0
000080 00 00 00 00 00 00 00 00 00 00 00 00 00 00 00 00
       0.0 0.0 0.0 0.0
000090 00 00 00 00 00 00 00 00 00 00 00 00 00 00 00 00
       0.0 0.0 0.0 0.0
0000a0 00 00 00 00 00 00 00 00 00 00 00 00 00 00 00 00
       0.0 0.0 0.0 0.0
0000b0 00 00 00 00 00 00 00 00 00 00 00 00 00 00 00 00
       0.0 0.0 0.0 0.0
0000c0 00 00 00 00 00 00 00 00 00 00 00 00 00 00 00 00
       0.0 0.0 0.0 0.0
0000d0 00 00 00 00 00 00 00 00 00 00 00 00 00 00 00 00
       0.0 0.0 0.0 0.0
0000e0 00 00 00 00 00 00 00 00 00 00 00 00 00 00 00 00
       0.0 0.0 0.0 0.0
0000f0 00 00 00 00 00 00 00 00 00 00 00 00 00 00 00 00
       0.0 0.0 0.0 0.0
000100 00 00 00 00 00 00 00 00 00 00 00 00 00 00 00 00
       0.0 0.0 0.0 0.0
000110 00 00 00 00 00 00 00 00 00 00 00 00 00 00 00 00
       0.0 0.0 0.0 0.0
000120 00 00 00 00 00 00 00 00 00 00 00 00 00 00 00 00
       0.0 0.0 0.0 0.0
000130 00 00 00 00 00 00 00 00 00 00 00 00 00 00 00 00
       0.0 0.0 0.0 0.0
000140 00 00 00 00 00 00 00 00 00 00 00 00 00 00 00 00
       0.0 0.0 0.0 0.0
000150 00 00 00 00 00 00 00 00 00 00 00 00 00 00 00 00
       0.0 0.0 0.0 0.0
000160 00 00 00 00 00 00 00 00 00 00 00 00 00 00 00 00
       0.0 0.0 0.0 0.0
000170 00 00 00 00 00 00 00 00 00 00 00 00 00 00 00 00
       0.0 0.0 0.0 0.0
000180 00 00 00 00 00 00 00 00 00 00 00 00 00 00 00 00
       0.0 0.0 0.0 0.0
000190 00 00 00 00 00 00 00 00 00 00 00 00 00 00 00 00
       0.0 0.0 0.0 0.0
0001a0 00 00 00 00 00 00 00 00 00 00 00 00 00 00 00 00
       0.0 0.0 0.0 0.0
0001b0 00 00 00 00 00 00 00 00 00 00 00 00 00 00 00 00
       0.0 0.0 0.0 0.0
0001c0 00 00 00 00 00 00 00 00 00 00 00 00 00 00 00 00
       0.0 0.0 0.0 0.0
0001d0 00 00 00 00 00 00 00 00 00 00 00 00 00 00 00 00
       0.0 0.0 0.0 0.0
0001e0 00 00 00 00 00 00 00 00 00 00 00 00 00 00 00 00
       0.0 0.0 0.0 0.0
0001f0 00 00 00 00 00 00 00 00 00 00 00 00 00 00 00 00
       0.0 0.0 0.0 0.0

_net._net.8.weight f4 [128, 128]
000000 f6 d0 1b ba 7c 21 a1 ba 49 1a da 39 e0 99 4c ba
       -0.00059439184 -0.0012293304 0.00041599784 -0.00078049116
000010 b4 0f 2e ba 1d fd 96 3a fc ae be 39 a6 6f f5 3a
       -0.0006639913 0.0011519525 0.00036369998 0.001872529
000020 b0 a3 0f 3a 44 8a 26 3a 10 90 29 38 d7 8d 59 b9
       0.00054794084 0.00063530006 4.042691e-05 -0.00020747572
000030 41 95 85 ba 32 24 bd 39 3d 15 40 ba 60 84 29 ba
       -0.0010191576 0.00036075857 -0.00073273835 -0.0006466564
000040 eb c9 07 ba c4 00 2b ba e1 c4 63 39 ae cb 99 b8
       -0.00051799294 -0.00065232464 0.0002172175 -7.333547e-05
000050 56 be 0b 39 ee b9 dc 3a 58 e1 2a b9 1e a4 1b b9
       0.00013326979 0.0016840079 -0.0001629641 -0.0001484309
000060 af c4 80 38 bc 37 ee 3a dd 36 d9 3a 0d 2f 04 ba
       6.140151e-05 0.0018174569 0.0016572137 -0.00050424115
000070 32 ef b2 b9 62 d9 4b 3a 21 7f 2d b9 5b ff 70 3a
       -0.0003412902 0.0007776228 -0.00016545925 0.00091933244
000080 b0 48 b7 b9 7b ec 90 ba 21 fe 62 3a 9c 0f 92 3a
       -0.00034958636 -0.0011056805 0.0008659084 0.0011143568
000090 b8 7e de ba 94 e6 c5 3a 8f 42 81 b4 d6 62 00 ba
       -0.0016975021 0.0015098625 -2.407655e-07 -0.000489754
0000a0 cd 32 2c ba 8e cd 97 ba 9b ae 6f ba 41 43 6b ba
       -0.0006568849 -0.0011581646 -0.00091431447 -0.000897456
0000b0 e4 f8 64 ba 0e a5 cd b9 99 6a bc b9 c5 ac aa ba
       -0.00087345974 -0.00039223622 -0.00035937576 -0.001302146
0000c0 18 70 2c 3a e1 c0 29 38 70 20 52 38 ce a7 57 3a
       0.00065779826 4.0472372e-05 5.009811e-05 0.0008226604
0000d0 e2 b9 13 3b e9 01 ac 3a 6d fe 1b ba 29 53 e5 b8
       0.0022541215 0.0013123128 -0.0005950693 -0.00010935061
0000e0 7b 1a 8c 39 18 37 10 38 89 ab ac 3a c2 8e 28 3a
       0.0002672261 3.4383585e-05 0.001317368 0.0006429964
0000f0 dc 54 1d 3b 4b 14 46 3a 06 36 0b 3a c2 5a e6 b9
       0.002400688 0.00075561245 0.00053104793 -0.00043936638
000100 9d 20 97 b9 5b 5e 4b 3a e7 ad 3a ba 9c 4a 3f ba
       -0.00028825263 0.00077578955 -0.00071212504 -0.00072971894
000110 e1 13 89 b8 e7 d4 1e 3a 33 e6 e7 b8 6b a4 03 3a
       -6.536372e-05 0.00060589466 -0.00011057816 0.00050217536
000120 aa 3a 2c ba 00 ac 76 3a dd 4d 8e ba ca 81 d5 3a
       -0.0006570021 0.0009409785 -0.0010856945 0.001628929
000130 38 32 1d 39 41 a2 a7 39 c4 92 bf b9 d2 5d 29 3a
       0.00014991395 0.0003197361 -0.00036539708 0.00064608187
000140 bc eb f5 b9 29 40 f1 b8 a9 5b 0d b8 98 06 1d 3b
       -0.00046905677 -0.00011503726 -3.3702385e-05 0.002396023
000150 80 48 20 ba 14 1d 51 39 66 ac 51 38 32 b4 31 3a
       -0.0006114319 0.00019942626 4.999004e-05 0.00067788654
000160 c2 47 2a 39 80 6b 45 ba e9 bd 89 ba 61 fb cf 39
       0.00016239195 -0.00075309724 -0.0010508868 0.0003966941
000170 d2 47 24 ba d7 25 6f 3a 96 69 00 ba 2b 8e ac b9
       -0.00062668056 0.0009122765 -0.0004898546 -0.0003291232
000180 20 4b 82 3a 2e e4 b1 37 7b f7 51 ba c4 cf 09 3a
       0.0009940602 2.1206299e-05 -0.0008009595 0.0005257095
000190 37 cb 7f 3a 60 30 ab b9 8a 01 3f 3a e1 5e 77 b7
       0.00097577594 -0.00032651704 0.0007286301 -1.4744438e-05
0001a0 c0 25 8e b8 98 08 0b 3b 37 88 87 3a 0f 36 70 b9
       -6.778119e-05 0.002121484 0.0010340278 -0.00022908322
0001b0 9e a3 03 3a 80 ee 83 39 90 99 5f ba 5b 8d b1 3a
       0.0005021634 0.00025163963 -0.00085296575 0.0013546156
0001c0 d3 7e c9 b9 65 eb 55 ba 94 6d 91 b9 78 5b 9d ba
       -0.000384322 -0.00081603817 -0.00027738197 -0.0012005409
0001d0 00 3b 51 b8 94 08 bf 39 d7 fe 43 3a 78 02 3d ba
       -4.988443e-05 0.0003643675 0.0007476634 -0.00072101457
0001e0 18 c9 b5 b9 73 de 22 ba 0d e4 c6 ba 57 66 1a 3b
       -0.00034672837 -0.0006212957 -0.0015174166 0.0023559534
0001f0 e6 f9 52 ba 2b 21 2c 3a 94 18 ab 3a 35 da d3 39
       -0.0008048102 0.0006566222 0.001305359 0.00040407633
000200 c8 e2 16 ba 30 08 b9 b7 25 85 85 3a 87 3a b3 39
       -0.0005755839 -2.2057531e-05 0.0010186775 0.00034185147
000210 2b 5b e6 38 78 6b 19 b9 77 57 a1 b9 05 b3 f6 37
       0.00010984236 -0.00014631252 -0.0003077348 2.9408848e-05
000220 38 b1 6a 3a c3 dc 69 b9 66 72 26 ba f4 f6 c5 b9
       0.0008952799 -0.00022302852 -0.0006349444 -0.00037758762
000230 01 06 c4 ba 57 d8 da b9 4b dc 32 38 87 3a e2 3a
       -0.0014955403 -0.00041741386 4.264367e-05 0.0017259874
000240 fb 79 11 3a c7 a1 22 37 8e 36 e4 b9 57 2b ae 39
       0.00055494875 9.693619e-06 -0.00043528195 0.00033220157
000250 f3 00 3b b9 93 5d ae 38 f4 8b e5 b9 87 7e 15 3a
       -0.00017834063 8.314396e-05 -0.00043782557 0.0005702753
000260 a9 92 6b ba 88 f5 8b ba 9b b4 fb b9 81 4e a6 39
       -0.00089863926 -0.0010678032 -0.00048009012 0.00031720477
000270 2e 9b b5 3a c6 38 b5 ba f8 de 23 3a 6e 3e fd 39
       0.0013855451 -0.0013826124 0.00062511815 0.00048302434
000280 a9 4e 2b 39 80 65 8d 3a 2b 3e 67 39 90 6f 28 b8
       0.00016337134 0.0010787696 0.00022053036 -4.0158222e-05
000290 59 8c 18 bb 72 08 40 3a 9f 11 1a ba 5a d8 81 38
       -0.0023277013 0.0007325477 -0.00058772595 6.191498e-05
0002a0 fb f9 93 b7 52 d6 a5 b8 b7 b0 06 ba ea d5 5c 3a
       -1.7640172e-05 -7.9077334e-05 -0.0005138027 0.00084242097
0002b0 a4 09 a2 39 7d 89 ab 39 9e 88 7c ba 97 d1 dc 3a
       0.0003090623 0.00032718098 -0.00096333947 0.0016847131
0002c0 90 e7 e0 39 d1 78 9c b9 d8 4f 1b 39 eb ec 49 ba
       0.00042897137 -0.00029844654 0.00014811696 -0.0007702845
0002d0 8f c6 03 3a 99 d1 5b 35 f0 eb cb ba a7 58 b5 3a
       0.0005026841 8.188886e-07 -0.0015557986 0.0013835625
0002e0 2a bd ce 3a c7 f8 92 ba 8b 6f 8e 3a 52 b1 5f ba
       0.0015772928 -0.0011213057 0.0010866983 -0.00085331977
0002f0 aa 63 2b 3a c5 cb fe 3a bb 05 89 3a 16 01 17 b9
       0.00065379834 0.001943939 0.0010453978 -0.00014400887
000300 b5 7e ef 38 7e bb df 39 a1 f1 38 39 76 58 ac ba
       0.00011420009 0.00042673567 0.00017637621 -0.0013148922
000310 ee bb f7 39 02 03 8d 3a 9c 26 cc 39 b0 3c 47 b8
       0.0004725153 0.0010758343 0.00038938678 -4.7501817e-05
000320 a4 9d 03 39 61 c5 ee ba 20 4b e4 b9 4d 70 41 3a
       0.00012551859 -0.0018216782 -0.0004354352 0.00073791
000330 d2 43 27 b9 34 a0 bd ba ce e9 e8 39 2e 9a 71 ba
       -0.00015951626 -0.00144673 0.00044424686 -0.0009216395
000340 58 10 6e 3a 99 bd 3f 39 46 4b 73 3a 00 61 23 3a
       0.0009081415 0.0001828581 0.0009280931 0.00062324107
000350 4b a5 cc 38 a9 be 18 3a 54 29 31 3a 38 1e a8 ba
       9.758266e-05 0.00058267504 0.00067581725 -0.0012826389
000360 7e 15 43 39 e3 01 08 3b c1 29 11 bb 36 15 05 3b
       0.00018604656 0.0020753078 -0.0022150131 0.0020306832
000370 1c 64 14 39 86 04 58 ba 82 e7 ee b9 37 f4 c7 b9
       0.00014151674 -0.000824042 -0.00045567384 -0.00038138192
000380 f7 69 a9 ba 8f 8b f9 b5 cd 00 2b 3a 21 59 6a ba
       -0.0012925257 -1.8592563e-06 0.00065232516 -0.0008939673
000390 22 bc 98 b9 a3 29 76 ba 0f 4b 01 ba 90 57 42 3a
       -0.0002913187 -0.00093903596 -0.0004932144 0.00074135605
0003a0 22 6c 46 ba c1 47 0c b9 20 0c db ba a1 20 cc 3a
       -0.00075692136 -0.00013378171 -0.0016711988 0.0015573689
0003b0 b9 e1 37 38 ac 46 64 37 02 19 3b 3a 67 49 aa ba
       4.384082e-05 1.3606314e-05 0.00071372103 -0.0012991846
0003c0 d7 24 46 b9 f7 30 70 ba d4 fa 93 39 5a 61 80 3a
       -0.00018896475 -0.000916257 0.00028224906 0.0009794638
0003d0 40 32 49 ba 26 2d e4 b8 b9 b8 7e ba 4d 55 ad 3a
       -0.00076750293 -0.00010880297 -0.0009716857 0.0013224274
0003e0 6b 0e 6b 39 cf 00 d7 ba d7 d9 4f b9 e0 0d cf 3a
       0.00022416718 -0.0016403439 -0.0001982221 0.0015796982
0003f0 63 12 90 3a 24 2e 29 b7 0e 2e 32 ba 86 e4 fb 39
       0.0010991808 -1.0083928e-05 -0.0006797024 0.00048044714
